…
segmentation_head.voting.weight - torch.Size([9, 128]): 
The value is the same before and after calling `init_weights` of VoteSegmentor  

segmentation_head.voting.bias - torch.Size([9]): 
The value is the same before and after calling `init_weights` of VoteSegmentor  
2025-02-21 15:59:38,319 - mmdet - INFO - Model:
VoteSegmentor(
  (voxel_layer): Voxelization(voxel_size=[0.16, 0.16, 0.24], point_cloud_range=[0, -25.6, -3, 51.2, 25.6, 2], max_num_points=-1, max_voxels=(-1, -1), deterministic=True)
  (voxel_encoder): CustomDynamicScatterVFE(
    (scatter): None
    (vfe_layers): ModuleList(
      (0): DynamicVFELayer(
        (norm): BatchNorm1d(64, eps=0.001, momentum=0.01, affine=True, track_running_stats=True)
        (linear): Linear(in_features=11, out_features=64, bias=False)
      )
      (1): DynamicVFELayer(
        (norm): BatchNorm1d(64, eps=0.001, momentum=0.01, affine=True, track_running_stats=True)
        (linear): Linear(in_features=128, out_features=64, bias=False)
      )
    )
    (vfe_scatter): None
    (cluster_scatter): None
  )
  (middle_encoder): PseudoMiddleEncoder()
  (backbone): SimpleSparseUNet(
    (conv_input): SparseSequential(
      (0): SubMConv3d()
      (1): BatchNorm1d(64, eps=0.001, momentum=0.01, affine=True, track_running_stats=True)
      (2): ReLU(inplace=True)
    )
    (encoder_layers): SparseSequential(
      (encoder_layer1): SparseSequential(
        (0): SparseSequential(
          (0): SubMConv3d()
          (1): BatchNorm1d(64, eps=0.001, momentum=0.01, affine=True, track_running_stats=True)
          (2): ReLU(inplace=True)
        )
      )
      (encoder_layer2): SparseSequential(
        (0): SparseSequential(
          (0): SparseConv3d()
          (1): BatchNorm1d(64, eps=0.001, momentum=0.01, affine=True, track_running_stats=True)
          (2): ReLU(inplace=True)
        )
        (1): SparseSequential(
          (0): SubMConv3d()
          (1): BatchNorm1d(64, eps=0.001, momentum=0.01, affine=True, track_running_stats=True)
          (2): ReLU(inplace=True)
        )
        (2): SparseSequential(
          (0): SubMConv3d()
          (1): BatchNorm1d(64, eps=0.001, momentum=0.01, affine=True, track_running_stats=True)
          (2): ReLU(inplace=True)
        )
      )
      (encoder_layer3): SparseSequential(
        (0): SparseSequential(
          (0): SparseConv3d()
          (1): BatchNorm1d(64, eps=0.001, momentum=0.01, affine=True, track_running_stats=True)
          (2): ReLU(inplace=True)
        )
        (1): SparseSequential(
          (0): SubMConv3d()
          (1): BatchNorm1d(64, eps=0.001, momentum=0.01, affine=True, track_running_stats=True)
          (2): ReLU(inplace=True)
        )
        (2): SparseSequential(
          (0): SubMConv3d()
          (1): BatchNorm1d(64, eps=0.001, momentum=0.01, affine=True, track_running_stats=True)
          (2): ReLU(inplace=True)
        )
      )
      (encoder_layer4): SparseSequential(
        (0): SparseSequential(
          (0): SparseConv3d()
          (1): BatchNorm1d(128, eps=0.001, momentum=0.01, affine=True, track_running_stats=True)
          (2): ReLU(inplace=True)
        )
        (1): SparseSequential(
          (0): SubMConv3d()
          (1): BatchNorm1d(128, eps=0.001, momentum=0.01, affine=True, track_running_stats=True)
          (2): ReLU(inplace=True)
        )
        (2): SparseSequential(
          (0): SubMConv3d()
          (1): BatchNorm1d(128, eps=0.001, momentum=0.01, affine=True, track_running_stats=True)
          (2): ReLU(inplace=True)
        )
      )
      (encoder_layer5): SparseSequential(
        (0): SparseSequential(
          (0): SparseConv3d()
          (1): BatchNorm1d(256, eps=0.001, momentum=0.01, affine=True, track_running_stats=True)
          (2): ReLU(inplace=True)
        )
        (1): SparseSequential(
          (0): SubMConv3d()
          (1): BatchNorm1d(256, eps=0.001, momentum=0.01, affine=True, track_running_stats=True)
          (2): ReLU(inplace=True)
        )
        (2): SparseSequential(
          (0): SubMConv3d()
          (1): BatchNorm1d(256, eps=0.001, momentum=0.01, affine=True, track_running_stats=True)
          (2): ReLU(inplace=True)
        )
      )
    )
    (lateral_layer5): SparseBasicBlock(
      (conv1): SubMConv3d()
      (bn1): BatchNorm1d(256, eps=0.001, momentum=0.01, affine=True, track_running_stats=True)
      (conv2): SubMConv3d()
      (bn2): BatchNorm1d(256, eps=0.001, momentum=0.01, affine=True, track_running_stats=True)
      (relu): ReLU(inplace=True)
    )
    (merge_layer5): SparseSequential(
      (0): SubMConv3d()
      (1): BatchNorm1d(256, eps=0.001, momentum=0.01, affine=True, track_running_stats=True)
      (2): ReLU(inplace=True)
    )
    (upsample_layer5): SparseSequential(
      (0): SparseInverseConv3d()
      (1): BatchNorm1d(128, eps=0.001, momentum=0.01, affine=True, track_running_stats=True)
      (2): ReLU(inplace=True)
    )
    (lateral_layer4): SparseBasicBlock(
      (conv1): SubMConv3d()
      (bn1): BatchNorm1d(128, eps=0.001, momentum=0.01, affine=True, track_running_stats=True)
      (conv2): SubMConv3d()
      (bn2): BatchNorm1d(128, eps=0.001, momentum=0.01, affine=True, track_running_stats=True)
      (relu): ReLU(inplace=True)
    )
    (merge_layer4): SparseSequential(
      (0): SubMConv3d()
      (1): BatchNorm1d(128, eps=0.001, momentum=0.01, affine=True, track_running_stats=True)
      (2): ReLU(inplace=True)
    )
    (upsample_layer4): SparseSequential(
      (0): SparseInverseConv3d()
      (1): BatchNorm1d(64, eps=0.001, momentum=0.01, affine=True, track_running_stats=True)
      (2): ReLU(inplace=True)
    )
    (lateral_layer3): SparseBasicBlock(
      (conv1): SubMConv3d()
      (bn1): BatchNorm1d(64, eps=0.001, momentum=0.01, affine=True, track_running_stats=True)
      (conv2): SubMConv3d()
      (bn2): BatchNorm1d(64, eps=0.001, momentum=0.01, affine=True, track_running_stats=True)
      (relu): ReLU(inplace=True)
    )
    (merge_layer3): SparseSequential(
      (0): SubMConv3d()
      (1): BatchNorm1d(64, eps=0.001, momentum=0.01, affine=True, track_running_stats=True)
      (2): ReLU(inplace=True)
    )
    (upsample_layer3): SparseSequential(
      (0): SparseInverseConv3d()
      (1): BatchNorm1d(64, eps=0.001, momentum=0.01, affine=True, track_running_stats=True)
      (2): ReLU(inplace=True)
    )
    (lateral_layer2): SparseBasicBlock(
      (conv1): SubMConv3d()
      (bn1): BatchNorm1d(64, eps=0.001, momentum=0.01, affine=True, track_running_stats=True)
      (conv2): SubMConv3d()
      (bn2): BatchNorm1d(64, eps=0.001, momentum=0.01, affine=True, track_running_stats=True)
      (relu): ReLU(inplace=True)
    )
    (merge_layer2): SparseSequential(
      (0): SubMConv3d()
      (1): BatchNorm1d(64, eps=0.001, momentum=0.01, affine=True, track_running_stats=True)
      (2): ReLU(inplace=True)
    )
    (upsample_layer2): SparseSequential(
      (0): SparseInverseConv3d()
      (1): BatchNorm1d(64, eps=0.001, momentum=0.01, affine=True, track_running_stats=True)
      (2): ReLU(inplace=True)
    )
    (lateral_layer1): SparseBasicBlock(
      (conv1): SubMConv3d()
      (bn1): BatchNorm1d(64, eps=0.001, momentum=0.01, affine=True, track_running_stats=True)
      (conv2): SubMConv3d()
      (bn2): BatchNorm1d(64, eps=0.001, momentum=0.01, affine=True, track_running_stats=True)
      (relu): ReLU(inplace=True)
    )
    (merge_layer1): SparseSequential(
      (0): SubMConv3d()
      (1): BatchNorm1d(64, eps=0.001, momentum=0.01, affine=True, track_running_stats=True)
      (2): ReLU(inplace=True)
    )
    (upsample_layer1): SparseSequential(
      (0): SubMConv3d()
      (1): BatchNorm1d(64, eps=0.001, momentum=0.01, affine=True, track_running_stats=True)
      (2): ReLU(inplace=True)
    )
    (conv_out): None
  )
  (segmentation_head): VoteSegHead(
    (loss_decode): FocalLoss()
    (conv_seg): Linear(in_features=128, out_features=3, bias=True)
    (pre_seg_conv): Sequential(
      (0): Sequential(
        (0): Linear(in_features=64, out_features=128, bias=False)
        (1): BatchNorm1d(128, eps=1e-05, momentum=0.1, affine=True, track_running_stats=True)
        (2): ReLU(inplace=True)
      )
      (1): Sequential(
        (0): Linear(in_features=128, out_features=128, bias=False)
        (1): BatchNorm1d(128, eps=1e-05, momentum=0.1, affine=True, track_running_stats=True)
        (2): ReLU(inplace=True)
      )
    )
    (voting): Linear(in_features=128, out_features=9, bias=True)
    (loss_vote): L1Loss()
  )
  (decode_neck): Voxel2PointScatterNeck()
)
2025-02-21 15:59:44,474 - mmdet - INFO - Start running, host: yq@amax, work_dir: /home/yq/LGDD/work_dirs/vod-unet_seg_pretrain_4x4_24e
2025-02-21 15:59:44,474 - mmdet - INFO - Hooks will be executed in the following order:
before_run:
(VERY_HIGH   ) CyclicLrUpdaterHook                
…
